assets/model/model_20250807_010545.pth (torch, 539881 bytes, 4 tensors)

net.0.weight f4 [64, 49]
0.1077259 0.007205777 0.048102386 -0.12733178 -0.16867863 -0.08245667 0.08912408 0.12418986
0.010529305 0.059559617 -0.065558136 0.05650425 0.031288996 -0.12719285 -0.11621273 -0.06814911
0.034671783 -0.056185126 0.03179902 0.0669294 0.07212184 -0.11695189 0.0700128 -0.016035216
-0.09217201 0.045046724 0.22727107 0.105957516 0.015805833 0.1776659 0.10743759 0.1366245
-0.08911743 0.088557065 -0.121725544 -0.040792502 0.07352358 0.027151972 0.089033365 -0.10642475
0.09807885 0.10372788 0.10002404 -0.07769043 0.15054041 0.13040923 0.08525076 0.089955166
0.12690873 0.35616902 0.12168747 -0.050728258 -0.024296528 -0.09250693 -0.09906591 0.0666762
-0.08659965 -0.09210301 0.022092182 -0.09554016 -0.12173299 0.09596972 -0.11291351 -0.0933654
-0.0636354 -0.14132534 -0.10360153 0.040845186 -0.07993629 0.11752571 0.16454674 0.17767039
0.03733867 0.032866005 -0.08890805 -0.00081398024 0.048204765 0.026093137 0.022888303 0.013214618
-0.020356111 -0.06547435 0.0029741377 -0.05250916 -0.033436656 0.048659235 0.14047794 0.008172736
-0.0042413473 -0.040048942 -0.09986222 -0.11405329 -0.10060277 0.06585869 -0.03241524 -0.076366976
-0.03529886 0.09183782 -0.058245413 -0.11603098 -0.054879785 0.101580724 -0.071520105 -0.09101212
-0.049177565 -0.07345374 0.016682401 -0.11313088 0.062785015 -0.012496069 -0.0027430058 0.043190375
-0.049460024 -0.046402164 0.018477216 -0.0046515465 -0.0052699 0.13812284 -0.025949687 -0.09935515
-0.040424194 -0.06352493 -0.106523946 -0.10261069 -0.14032143 -0.0035632402 0.10051237 0.121625826
0.018967971 -0.029694952 -0.052522644 0.08623086 -0.025985427 0.0011032373 0.010724261 -0.048972353
-0.034223333 -0.026240245 -0.006828323 0.0951218 0.041360393 -0.1159372 0.03156035 -0.10067794
0.10888713 0.013028458 -0.111182645 0.011338549 -0.14151847 -0.13127719 0.050354026 0.014486478
0.04798414 0.0112768 -0.09759961 0.05939196 -0.01546742 -0.029136047 -0.021863312 0.08675516
0.13227655 -0.09519865 -0.04253587 0.094153225 0.021182284 -0.13364872 0.024974883 -0.12899809
0.017156363 -0.0055027246 -0.15067102 0.103572294 -0.14842702 0.044580415 0.100152075 -0.038859747
-0.049272962 0.102918595 0.056650728 0.08797701 -0.02890151 -0.1200049 0.08863957 -0.09023911
0.107443616 0.09401004 -0.10243127 0.040215284 0.14738625 0.051965807 -0.14773853 0.099255204
-0.07292378 -0.041318975 -0.032055855 -0.10703945 0.2723751 0.19269852 -0.04586486 -0.07530774
0.15771656 -0.09592702 0.013169155 -0.13752967 -0.03886931 -0.14154261 0.02906935 -0.02566452
-0.17763217 -0.19019955 -0.087806605 -0.062352758 -0.005263784 -0.11766809 0.081161305 -0.09447008
-0.09228194 -0.0083274115 0.109612405 -0.067439154 -0.07095619 -0.07613279 -0.039774273 -0.026117858
-0.07550913 -0.18330349 -0.18113504 0.13973698 -0.100871824 -0.08500728 -0.04758833 -0.03239368
0.10759489 -0.05406373 0.07647176 0.1057075 0.022359654 0.034404278 0.114349596 0.09472723
0.13619447 0.10192397 0.16327293 0.10155703 0.16632773 -0.14538878 -0.080454886 0.0994395
0.19642179 -0.060213305 0.16050632 0.20759304 -0.03784817 -0.009161772 -0.019614056 0.012130519
00000000: 669f dc3d 701e ec3b 0207 453d 4363 02be
00000010: 17ba 2cbe 0bdf a8bd b086 b63d 4157 fe3d
00000020: 1b83 2c3c c9f4 733d 5843 86bd 0071 673d
00000030: e428 003d d83e 02be f100 eebd c391 8bbd
00000040: 0004 0e3d 6022 66bd b03f 023d 4812 893d
00000050: 9eb4 933d 7984 efbd df62 8f3d 495c 83bc
00000060: aec4 bcbd ea82 383d bfb9 683e 4100 d93d
00000070: 3c7b 813c 0dee 353e 3d08 dc3d 4be7 0b3e
00000080: 3383 b6bd 685d b53d 3e4b f9bd 0a16 27bd
00000090: 8893 963d d06d de3c 2057 b63d 38f5 d9bd
000000a0: 90dd c83d 486f d43d 67d9 cc3d 291c 9fbd
000000b0: 4427 1a3e ff89 053e f397 ae3d 6a3a b83d
000000c0: 5df4 013e c95b b63e 4837 f93d 6fc8 4fbd
000000d0: 8309 c7bc 4674 bdbd 11e3 cabd 888d 883d
000000e0: 285b b1bd 81a0 bcbd aafa b43c 8faa c3bd
000000f0: 254f f9bd c68b c43d 333f e7bd 5c36 bfbd
00000100: 4753 82bd 97b7 10be 0a2d d4bd 484d 273d
00000110: a3b5 a3bd 52b1 f03d f17e 283e 3aef 353e
00000120: 6ff0 183d 819e 063d 6c15 b6bd 4a61 55ba
00000130: 5c72 453d 46c1 d53c 4080 bb3c 2082 583c
00000140: dcc1 a6bc 6a17 86bd c0e9 423b d813 57bd
00000150: e0f4 08bd e84e 473d 73d9 0f3e f0e6 053c
00000160: 00fb 8abb 5c0a 24bd 9084 ccbd c594 e9bd
00000170: d308 cebd ece0 863d d8c5 04bd 4a66 9cbd
00000180: 8a95 10bd 7815 bc3d be92 6ebd a7a1 edbd
00000190: a0c9 60bd 8e09 d03d 2279 92bd 9064 babd
000001a0: 6a6e 49bd ea6e 96bd 88a9 883c 2ab1 e7bd
000001b0: 6e95 803d 50bc 4cbc 00c4 33bb 64e8 303d
000001c0: 9896 4abd 3210 3ebd 885d 973c 006c 98bb
000001d0: 20af acbb 1370 0d3e 7094 d4bc b67a cbbd
000001e0: d793 25bd 5c19 82bd 3a29 dabd 8e25 d2bd
000001f0: 6cb0 0fbe 4085 69bb 6ed9 cd3d f616 f93d
00000200: b862 9b3c d442 f3bc fc21 57bd ce99 b03d
00000210: 64df d4bc 809a 903a d0b4 2f3c 3c97 48bd
00000220: c42d 0cbd c8f5 d6bc 20c0 dfbb 38cf c23d
00000230: 8469 293d 7c70 edbd 6d45 013d 3c30 cebd
00000240: 3700 df3d 5075 553c bab3 e3bd 52c5 393c
00000250: 38ea 10be 876d 06be 0640 4e3d b158 6d3c
00000260: 058b 443d 54c2 383c 4ee2 c7bd fc44 733d
00000270: 106b 7dbc b8ae eebc b01a b3bc b0ac b13d
00000280: 8173 073e 83f7 c2bd 183a 2ebd 68d3 c03d
00000290: 7886 ad3c 36db 08be 2098 cc3c 1318 04be
000002a0: 808b 8c3c 3350 b4bb 8149 1abe b61d d43d
000002b0: 41fd 17be f499 363d 881c cd3d 662b 1fbd
000002c0: 72d2 49bd fcc6 d23d 980a 683d 4a2d b43d
000002d0: dcc2 ecbc 21c5 f5bd aa88 b53d 48cf b8bd
000002e0: 660b dc3d 5688 c03d 7cc7 d1bd c8b8 243d
000002f0: 6cec 163e 19da 543d c548 17be 5046 cb3d
00000300: 1059 95bd 163e 29bd 004d 03bd 8037 dbbd
00000310: c074 8b3e c352 453e cbdc 3bbd f23a 9abd
00000320: 7380 213e 6375 c4bd 71c3 573c 94d4 0cbe
00000330: 6d35 1fbd 8cf0 10be d822 ee3c 663e d2bc
00000340: 35e5 35be acc3 42be f3d3 b3bd 9b65 7fbd
00000350: d27b acbb f8fb f0bd e637 a63d 8879 c1bd
00000360: 50fe bcbd b26f 08bc 787c e03d 8a1d 8abd
00000370: 7b51 91bd 82eb 9bbd 59ea 22bd 1ef5 d5bc
00000380: 88a4 9abd e9b3 3bbe 777b 39be 3617 0f3e
00000390: e395 cebd 4c18 aebd fbeb 42bd 3caf 04bd
000003a0: b65a dc3d ee71 5dbd 3a9d 9c3d 2c7d d83d
000003b0: 982b b73c 80eb 0c3d 1f30 ea3d 5a00 c23d
000003c0: 9076 0b3e 84bd d03d 0531 273e 22fd cf3d
000003d0: d151 2a3e cce0 14be 88c5 a4bd f0a6 cb3d
000003e0: cb22 493e 3aa2 76bd c55b 243e 4593 543e
000003f0: af06 1bbd 421b 16bc a8ad a0bc 16bf 463c

net.0.bias f4 [64]
0.028419048 0.3686095 0.034735046 -0.016745476 0.18050228 0.09433984 -0.08006155 0.2338475
0.044749662 -0.047615014 0.38556802 0.015114593 -0.022755798 -0.1616756 0.011611716 0.24996603
-0.11372444 -0.0026140374 0.015120956 0.11523083 -0.019139212 -0.052492894 -0.052807722 0.20026392
-0.0022745593 0.14184783 0.04866188 0.15666448 -0.06586441 0.046444416 0.16560143 0.2138523
0.025397928 0.23088759 0.1938977 0.25538686 -0.12367377 0.0746952 -0.0024790822 0.039942022
-0.060321607 0.16900975 0.2828195 -0.1623223 0.19094402 0.21614265 -0.029104661 0.014164125
0.2650559 0.057561897 -0.065290235 0.05912726 0.084176935 0.06415763 0.1494384 0.17184606
0.19852681 -0.03536868 -0.021849453 0.25928533 0.2924141 -0.06720163 -0.07003084 0.0038607873
00000000: 10cf e83c 62ba bc3e 5646 0e3d cf2d 89bc
00000010: 97d5 383e 3f35 c13d 4ff7 a3bd b875 6f3e
00000020: 6c4b 373d f607 43bd 2c69 c53e 33a3 773c
00000030: 5e6a babc 4a8e 25be 113f 3e3c 18f7 7f3e
00000040: 5ce8 e8bd 4550 2bbb e3bd 773c 24fe eb3d
00000050: d6c9 9cbc ca02 57bd e94c 58bd fc11 4d3e
00000060: c610 15bb 8f40 113e ae51 473d a76c 203e
00000070: ebe3 86bd 803c 3e3d 6c93 293e 19fc 5a3e
00000080: 510f d03c cc6d 6c3e 1e8d 463e 11c2 823e
00000090: ac48 fdbd ccf9 983d 1978 22bb 3f9a 233d
000000a0: ca13 77bd e410 2d3e b8cd 903e d137 26be
000000b0: d486 433e 8054 5d3e e66c eebc a510 683c
000000c0: 68b5 873e 06c6 6b3d e3b6 85bd 6d2f 723d
000000d0: f564 ac3d 1365 833d 6106 193e 6af8 2f3e
000000e0: 9d4a 4b3e c0de 10bd a0fd b2bc 0cc1 843e
000000f0: 4db7 953e 02a1 89bd 546c 8fbd 4305 7d3b

net.2.weight f4 [2017, 64]
-0.058191493 -0.1165953 -0.02346158 -0.080622524 -0.04593049 -0.025177568 -0.071856394 -0.00085422397
-0.004674211 0.06139359 -0.015367597 0.07798903 -0.09939605 0.10639197 -0.026160136 0.061598092
-0.05981134 0.09905483 -0.09657143 -0.019028455 -0.07039572 -0.0017268062 -0.065954566 -0.10136296
-0.082878575 -0.097526446 0.089145795 0.10780096 -0.06600489 -0.11518833 0.0041694194 -0.10947555
0.0435234 -0.04664962 0.09828727 0.08540544 -0.08769898 -0.07826494 -0.018512636 -0.020138487
-0.021390215 -0.0987394 0.06870428 -0.11979245 -0.0945116 0.0668266 0.11427632 0.105869204
0.0063548535 0.061428607 -0.051165596 -0.065063134 0.06436831 0.021317601 0.04011388 -0.0052737743
0.09221275 -0.106608674 -0.08957386 0.12367058 -0.11768097 -0.018400177 0.12041269 -0.08630307
-0.11508039 -0.029187873 0.114556044 -0.121446416 0.10424055 0.006516218 -0.049902186 0.05424206
-0.019521669 0.009733781 -0.05704768 0.059669733 -0.08161715 0.050020248 0.06030318 -0.065657556
0.031202883 0.09816809 0.07187769 0.019578397 -0.020649955 -0.041841567 0.10718171 0.079597056
-0.03285764 -0.086238116 -0.036824092 -0.089564264 0.057780176 0.101817325 -0.06405154 -0.040942863
-0.0932661 0.08318244 -0.044325963 0.1249551 0.074180394 0.027930796 -0.113873884 -0.11317454
0.07649051 0.08611269 0.06953055 -0.0749072 -0.10938878 0.029990315 0.053364664 0.10622509
0.033154294 0.018372849 0.110795304 0.017794281 -0.0138492435 -0.024663046 0.010372952 -0.0018303096
-0.09537433 -0.09386213 0.038570374 -0.045334503 -0.059589997 -0.049315095 -0.015868247 -0.10237776
-0.007440135 0.122445405 0.07744111 -0.010850295 0.106704414 0.12390481 0.11037964 -0.03574328
0.029119983 -0.07822664 -0.086572155 0.04387711 -0.094621375 0.07155894 -0.11986822 -0.083437696
0.023707613 -0.10594548 -0.07805781 0.07876077 0.1050929 -0.05991581 -0.114879414 -0.03689474
0.006147057 -0.0432135 0.060320765 0.08935776 0.009579897 0.120311126 0.06261712 0.095534354
-0.096626386 -0.015281215 0.036928594 -0.005203739 -0.086441204 0.029887214 -0.09617388 0.009922236
0.009736136 0.08043438 0.01559785 -0.05404952 0.047344387 0.081549644 0.00545083 -0.088163435
-0.045557365 -0.039499953 0.015185475 -0.07591806 -0.031163901 -0.07364981 0.031939566 -0.10429837
0.00089776516 0.071750894 0.04989724 0.10226503 0.0037231296 0.040570647 -0.11509527 -0.06179683
0.051054865 -0.057122976 0.012815133 0.0882456 0.06704186 -0.08313836 -0.059163272 0.008737221
0.017297313 -0.11519015 -0.086122915 0.03564383 0.008745179 0.09782298 0.06461573 -0.022339717
0.069839776 0.0067901164 0.0429914 -0.081168875 -0.094117954 -0.04995723 0.09891684 0.101787165
-0.030175105 0.0011356771 0.009340212 -0.101027474 -0.12117556 0.12418158 0.04740818 0.07962908
-0.089217424 -0.086733714 0.06643392 0.11702211 -0.070247665 -0.08440402 0.0010748655 0.119317606
0.0712724 -0.039314017 0.09746985 0.013731837 0.034093946 -0.01275897 -0.05800262 -0.025232539
-0.019463092 -0.08255814 -0.09834564 -0.035675123 -0.046211734 0.09856342 0.10737087 -0.018330812
0.08430961 -0.114184454 -0.049639106 0.07692662 -0.010466188 -0.03476274 0.041499555 -0.12114391
00000000: 345a 6ebd 84c9 eebd 8032 c0bc 6c1d a5bd
00000010: 9c21 3cbd 3041 cebc 7229 93bd 00ee 5fba
00000020: 202a 99bb d877 7b3d 60c8 7bbc b6b8 9f3d
00000030: 2890 cbbd 08e4 d93d c84d d6bc 484e 7c3d
00000040: bcfc 74bd 42dd ca3d 3ec7 c5bd 90e1 9bbc
00000050: a22b 90bd 0056 e2ba 3013 87bd 6297 cfbd
00000060: 3ebc a9bd f2bb c7bd 1292 b63d c0c6 dc3d
00000070: 922d 87bd dce7 ebbd a09f 883b b834 e0bd
00000080: 9845 323d ac13 3fbd d64a c93d 0ce9 ae3d
00000090: 869b b3bd 5e49 a0bd d0a7 97bc 78f9 a4bc
000000a0: 883a afbc e237 cabd d4b4 8c3d be55 f5bd
000000b0: 4c8f c1bd 62dc 883d b409 ea3d f4d1 d83d
000000c0: 603c d03b 909c 7b3d 0493 51bd d23f 85bd
000000d0: 88d3 833d 40a2 ae3c 744e 243d a0cf acbb
000000e0: 0ada bc3d a655 dabd 8072 b7bd 0047 fd3d
000000f0: b802 f1bd f8bb 96bc ee9a f63d aabf b0bd
00000100: 44af ebbd 681b efbc 5c9c ea3d e6b8 f8bd
00000110: 127c d53d 0086 d53b 3c66 4cbd ec2c 5e3d
00000120: e8eb 9fbc 707a 1f3c d4aa 69bd 4068 743d
00000130: e426 a7bd 08e2 4c3d 7800 773d 7877 86bd
00000140: 309d ff3c 5a0c c93d 9c34 933d e062 a03c
00000150: 182a a9bc 1062 2bbd 1682 db3d c803 a33d
00000160: bc95 06bd 9c9d b0bd dcd4 16bd 786d b7bd
00000170: e8aa 6c3d 9a85 d03d 742d 83bd b4b3 27bd
00000180: 4c02 bfbd 8e5b aa3d 248f 35bd 76e8 ff3d
00000190: e4eb 973d 20cf e43c b636 e9bd 0ec8 e7bd
000001a0: 0ea7 9c3d da5b b03d 0866 8e3d f268 99bd
000001b0: 3a07 e0bd 40ae f53c e894 5a3d 8a8c d93d
000001c0: cccc 073d a882 963c a6e8 e23d 50c5 913c
000001d0: f0e7 62bc 280a cabc 50f3 293c 00e7 efba
000001e0: 9e53 c3bd ca3a c0bd f8fb 1d3d acb0 39bd
000001f0: a414 74bd a0fe 49bd 20fe 81bc 6eab d1bd
00000200: 60cc f3bb a8c4 fa3d 7299 9e3d 70c5 31bc
00000210: d887 da3d cec1 fd3d b80e e23d 8c67 12bd
00000220: 088d ee3c 4a35 a0bd be4c b1bd 7cb8 333d
00000230: dac8 c1bd 7e8d 923d 787d f5bd 62e1 aabd
00000240: 7836 c23c f2f9 d8bd c6dc 9fbd 544d a13d
00000250: f23a d73d 486a 75bd e645 ebbd f01e 17bd
00000260: 406d c93b a400 31bd e812 773d 3401 b73d
00000270: 00f5 1c3c ae65 f63d 683d 803d 84a7 c33d
00000280: 0ee4 c5bd 105e 7abc 7042 173d 2084 aabb
00000290: 1608 b1bd 08d6 f43c d0f6 c4bd e090 223c
000002a0: 5084 1f3c c8ba a43d 208e 7f3c 0863 5dbd
000002b0: 30ec 413d 8003 a73d e09c b23b 088f b4bd
000002c0: 5c9a 3abd b4ca 21bd 80cc 783c ee7a 9bbd
000002d0: 704b ffbc b6d5 96bd 10d3 023d 629a d5bd
000002e0: 0058 6b3a 22f2 923d 0c61 4c3d 5470 d13d
000002f0: c0ff 733b 682d 263d 12b7 ebbd ac1e 7dbd
00000300: e81e 513d c8f9 69bd 90f6 513c 1cba b43d
00000310: 3e4d 893d 7244 aabd 3055 72bd 9026 0f3c
00000320: 18b3 8d3c d0e8 ebbd 3661 b0bd 44ff 113d
00000330: f047 0f3c 6a57 c83d 4055 843d c801 b7bc
00000340: 2808 8f3d a07f de3b c017 303d de3b a6bd
00000350: eac0 c0bd f49f 4cbd ea94 ca3d ca75 d03d
00000360: c831 f7bc 00db 943a b007 193c 7ee7 cebd
00000370: e42a f8bd ea52 fe3d 142f 423d 9214 a33d
00000380: a0b7 b6bd 72a1 b1bd 820e 883d 4aa9 ef3d
00000390: 02de 8fbd 04dc acbd 80e2 8c3a ca5c f43d
000003a0: 44f7 913d bc07 21bd 469e c73d 80fb 603c
000003b0: 18a6 0b3d 000b 51bc 2894 6dbd 78b4 cebc
000003c0: 1071 9fbc 3e14 a9bd 7069 c9bd 1420 12bd
000003d0: 8448 3dbd 9edb c93d 42e5 db3d 802a 96bc
000003e0: 84aa ac3d 8ad9 e9bd 6052 4bbd b48b 9d3d
000003f0: 607a 2bbc 6063 0ebd 70fb 293d 4c1a f8bd

net.2.bias f4 [2017]
-0.053873926 0.09551838 0.048231766 0.03583105 -0.07880506 0.049315393 0.076082766 0.08250496
0.0649167 0.10152385 -0.09268756 -0.0806267 -0.0007252991 0.06843366 -0.08963396 0.06792315
0.013760835 0.09729014 -0.11991206 -0.110260785 -0.076825485 -0.0061296225 -0.09642957 -0.00921461
0.060638204 -0.014630973 0.024857938 0.046372518 -0.09267855 -0.033168912 0.1096534 0.032547846
0.012612656 -0.119236186 0.093435094 0.0303476 0.10193434 -0.0039259195 0.052057818 -0.02104257
-0.0431882 0.02040334 0.055544227 -0.024225578 -0.023891538 0.090710655 -0.021159634 0.06961423
-0.059449 0.050317302 0.117747694 -0.08342542 -0.05432211 -0.06390931 -0.10713011 0.06654763
-0.03352481 0.09477189 0.08045128 -0.060840264 -0.076399386 -0.10480943 0.035134673 0.015641555
-0.03373961 -0.08982386 0.0059888214 -0.073321536 -0.09993717 -0.037693724 0.0018769056 0.0109063685
0.0925324 0.01640284 -0.050814107 0.040188327 0.08817586 0.045361146 -0.005523205 0.0837874
-0.103700384 0.028855726 0.07938902 -0.117825806 -0.024745435 0.029995725 0.12054749 -0.04792638
0.037026525 -0.026779026 0.117531076 0.11595522 0.08881633 -0.065022 0.11913599 0.050837338
0.009013191 -0.1199089 -0.12395072 -0.016374126 -0.06929505 -0.017283544 0.12305473 -0.0861336
0.06994736 0.10334426 0.037870526 -0.016924053 0.09074156 -0.072575375 -0.12025276 -0.055472076
0.038422927 -0.090794176 0.117711216 -0.08503893 -0.12337932 -0.04436858 -0.07596725 -0.08269301
-0.08133423 -0.07937643 0.0040641725 -0.10103181 -0.09411912 -0.0026013702 -0.09508024 0.14702329
0.08870706 -0.1194026 0.110206574 0.01238434 0.10386819 0.06784001 0.09196378 -0.014497802
-0.099475056 0.013939947 -0.045139313 -0.029296726 0.075354055 0.029222459 -0.10770455 0.10868563
-0.11565077 -0.08814919 0.050901577 0.123336196 0.029963896 0.0098430365 -0.0018874258 -0.003014475
0.034233853 0.11647625 -0.12374604 0.004750088 0.03739454 -0.098394305 -0.017531142 0.0110987425
-0.076766744 0.08780275 0.025869295 -0.026673779 -0.09073453 0.069418594 -0.113453165 -0.048038587
0.07485415 -0.09527141 0.09261921 0.051558048 -0.05160336 -0.10950981 0.047067627 -0.031846236
-0.07445483 -0.08496472 -0.0062551824 -0.11112331 0.115064025 0.09315778 -0.0059286803 0.07740776
0.10107826 0.10958779 0.008149937 -0.09970251 0.117952436 -0.068063885 0.07338877 -0.095448285
-0.04892379 0.07151301 -0.037471488 -0.011875585 0.10985567 0.082662135 -0.0146743115 0.06256198
-0.11754486 0.119110495 -0.11670567 0.08394241 -0.006253865 -0.0058673173 0.020066917 -0.08726111
-0.04512015 0.08959964 0.110771656 0.078157604 0.0092124045 0.055320784 0.07424997 -0.11315858
0.049903296 -0.044405848 0.04181929 -0.11159764 0.016931653 0.09098081 -0.040794805 0.11188336
0.001282081 0.06883727 0.025404468 0.0627999 0.04055044 -0.08615187 -0.034967184 0.06186287
-0.029305026 -0.09814954 -0.03718035 -0.055381447 0.041625023 -0.0054835826 -0.06581819 0.10356215
-0.06635204 0.027145416 -0.04002379 0.029711872 -0.030523732 0.12059513 0.075150356 -0.0152058005
0.07212916 0.030574352 -0.07438198 0.10536793 -0.11952478 0.043613374 0.04805623 0.037311435
00000000: e8aa 5cbd 249f c33d ac8e 453d 94c3 123d
00000010: 8c64 a1bd f0fe 493d 48d1 9b3d 5cf8 a83d
00000020: 0cf3 843d bceb cf3d fad2 bdbd 9c1f a5bd
00000030: 0022 3eba f226 8c3d 0292 b7bd 4b1b 8b3d
00000040: 2075 613c 0e40 c73d 7494 f5bd 68d0 e1bd
00000050: ae56 9dbd 00db c8bb de7c c5bd e0f8 16bc
00000060: c45f 783d c0b6 6fbc e0a2 cb3c 1cf1 3d3d
00000070: 40ce bdbd 20dc 07bd f691 e03d e450 053d
00000080: 50a5 4e3c 1a32 f4bd e65a bf3d 889b f83c
00000090: f4c2 d03d 00a5 80bb 943a 553d 7861 acbc
000000a0: 1ce6 30bd e824 a73c 5882 633d b874 c6bc
000000b0: 30b8 c3bc 82c6 b93d f856 adbc e891 8e3d
000000c0: cb80 73bd 8419 4e3d b425 f13d f2da aabd
000000d0: dc80 5ebd e2e2 82bd 0867 dbbd 204a 883d
000000e0: 5051 09bd c417 c23d a4c3 a43d a433 79bd
000000f0: 4877 9cbd 54a6 d6bd 60e9 0f3d b822 803c
00000100: 8c32 0abd 92f5 b7bd e03d c43b 9a29 96bd
00000110: dcab ccbd bc64 1abd 8002 f63a a0b0 323c
00000120: a081 bd3d 405f 863c 7422 50bd 849c 243d
00000130: 8c95 b43d 9ccc 393d 00fc b4bb ba98 ab3d
00000140: de60 d4bd d862 ec3c b696 a23d a84e f1bd
00000150: f0b6 cabc 98b9 f53c 9ae1 f63d 744e 44bd
00000160: 20a9 173d b05f dbbc 22b4 f03d ee79 ed3d
00000170: 56e5 b53d 412a 85bd 92fd f33d d03a 503d
00000180: 10ac 133c cc92 f5bd e0d9 fdbd 0823 86bc
00000190: 90ea 8dbd 3896 8dbc 1e04 fc3d d066 b0bd
000001a0: 9040 8f3d 28a6 d33d 201e 1b3d 50a4 8abc
000001b0: b6d6 b93d 66a2 94bd 1447 f6bd b036 63bd
000001c0: 5c61 1d3d 4cf2 b9bd 9412 f13d e428 aebd
000001d0: 4cae fcbd d4bb 35bd b894 9bbd f45a a9bd
000001e0: 9092 a6bd 1c90 a2bd c02c 853b c4e9 cebd
000001f0: 86c1 c0bd c07b 2abb 6eb9 c2bd 468d 163e
00000200: 0cac b53d 5a89 f4bd fcb3 e13d b0e7 4a3c
00000210: d8b8 d43d b4ef 8a3d 8257 bc3d 3088 6dbc
00000220: 94b9 cbbd 6064 643c 00e4 38bd b0ff efbc
00000230: 3a53 9a3d f063 ef3c 3494 dcbd 9296 de3d
00000240: 50da ecbd 9087 b4bd 2c7e 503d b097 fc3d
00000250: d876 f53c b044 213c 8063 f7ba 808e 45bb
00000260: cc38 0c3d 1a8b ee3d 906e fdbd a0a6 9b3b
00000270: 042b 193d f482 c9bd 789d 8fbc 80d7 353c
00000280: e237 9dbd eed1 b33d d8eb d33c f882 dabc
00000290: 06d3 b9bd 562b 8e3d 225a e8bd 1cc4 44bd
000002a0: 224d 993d a81d c3bd 24af bd3d 882e 533d
000002b0: 0b5e 53bd ae46 e0bd fcc9 403d 3371 02bd
000002c0: c67b 98bd fc01 aebd 46f8 ccbb 9e94 e3bd
000002d0: b0a6 eb3d 82c9 be3d 6045 c2bb f687 9e3d
000002e0: 1e02 cf3d 906f e03d 5087 053c d430 ccbd
000002f0: 0c91 f13d 1465 8bbd da4c 963d 647a c3bd
00000300: 5064 48bd 6a75 923d b47b 19bd d091 42bc
00000310: 02fc e03d c44a a93d 866c 70bc 7f20 803d
00000320: 5cbb f0bd 34f0 f33d 6203 efbd 00ea ab3d
00000330: 39ed ccbb a042 c0bb 6063 a43c f4b5 b2bd
00000340: e8cf 38bd 0480 b73d 40dc e23d 1811 a03d
00000350: a0ef 163c 0c98 623d 5e10 983d b0bf e7bd
00000360: 6667 4c3d e8e2 35bd b44a 2b3d 4e8d e4bd
00000370: 40b4 8a3c 2654 ba3d 7418 27bd 1a23 e53d
00000380: 800b a83a 8efa 8c3d 081d d03c 3c9d 803d
00000390: 3818 263d 6470 b0bd c039 0fbd ec63 7d3d
000003a0: 1811 f0bc a002 c9bd 6c4a 18bd a8d7 62bd
000003b0: 007f 2a3d a0af b3bb b0cb 86bd 6418 d43d
000003c0: 94e3 87bd 1060 de3c fcef 23bd 5066 f33c
000003d0: e80c fabc 94fa f63d 6ee8 993d c021 79bc
000003e0: 74b8 933d 1077 fa3c 9455 98bd 24cb d73d
000003f0: 68c9 f4bd f0a3 323d 9cd6 443d e0d3 183d
